George_2.pth (torch, 35967 bytes, 12 tensors)

running_mean f4 [22]
000000 d9 a6 70 3d 0e 31 f7 3e 34 ba ea 3e 05 66 88 bf
       0.05875287 0.48279613 0.45845187 -1.0656134
000010 87 d7 5e 3f 13 33 57 3f 16 68 50 3f b3 fb 42 3f
       0.8704762 0.8406231 0.8140882 0.7616531
000020 ba 55 3b 3f 6f e3 3c 3f 29 45 43 3f f0 26 4d 3f
       0.73177683 0.73784536 0.76277405 0.8013754
000030 78 f1 54 3f d2 36 5a 3f d2 b8 61 3f d6 63 65 3f
       0.8318095 0.852399 0.8817264 0.8960546
000040 ff 26 62 3f ca c3 57 3f 29 0c 50 3f ff 00 58 3f
       0.88340753 0.84283125 0.81268555 0.8437652
000050 88 9a 66 3f 5e 53 65 3f
       0.90079546 0.89580333

running_variance f4 [22]
000000 26 ef bb 48 bd 26 d4 49 e0 ef d2 49 7f 70 d8 4d
       384889.2 1.7379436e+06 1.727996e+06 4.539064e+08
000010 0a 81 48 48 65 8b 8e 48 b4 33 b2 48 67 df de 48
       205316.16 291931.16 364957.62 456443.22
000020 d5 0a f5 48 a3 1a eb 48 e0 e6 d0 48 0f be ab 48
       501846.66 481493.1 427831.0 351728.47
000030 c2 8a 89 48 92 92 63 48 f8 ec 4c 48 01 58 47 48
       281686.06 233034.28 209843.88 204128.02
000040 19 ee 5c 48 9a 72 8a 48 5e d4 90 48 c5 88 5d 48
       226232.39 283540.8 296610.94 226851.08
000050 4d fa 25 48 3c fd 2d 48
       169961.2 178164.94

weight f4 [128, 22]
000000 51 cd b3 3e d7 2f 97 3e 38 dc 8f be 32 3f 1e be
       0.3511758 0.29528686 -0.280977 -0.15453795
000010 5a 42 d7 be 86 92 87 3e f1 d6 02 be 67 ae 92 3e
       -0.4204281 0.26478976 -0.12777306 0.28648683
000020 07 01 e3 3e b7 2d 7c be 50 41 a7 3e f5 3c 3f 3e
       0.4433672 -0.24626814 0.32667017 0.18675597
000030 47 e5 5f 3e 20 71 9c bd 49 86 e7 3d 83 9e 10 be
       0.21864806 -0.076387644 0.1130491 -0.14122967
000040 1a d2 b3 3e d8 76 06 3c be a7 9d bd e3 38 5f be
       0.35121232 0.0082070455 -0.0769801 -0.21799044
000050 df 14 cb 3e e6 9c 57 be dc 22 51 3d 96 65 d5 3e
       0.3966436 -0.21055946 0.051058635 0.41679066
000060 e6 9e fe 3b bd 9e a1 be e3 85 5c be 81 56 22 be
       0.007770407 -0.3156642 -0.21535449 -0.15853311
000070 0b 1a 80 bc 1c fa 55 be a9 a7 2f 3e 8a ae a9 be
       -0.015637418 -0.2089619 0.17153801 -0.33140975
000080 73 40 86 3d c6 53 1b be c2 e5 aa bd 8d 8d 5a 3e
       0.065552615 -0.15168676 -0.08344604 0.2134306
000090 7b be 23 3e 11 09 0e 3f d9 c4 d1 3e 88 c9 55 3e
       0.15990631 0.55482584 0.40970495 0.2087766
0000a0 e1 7e 04 be e3 83 97 3e 8e 50 19 3e 18 31 fe 3d
       -0.12939025 0.2959281 0.14972135 0.12411708
0000b0 7a 6e 16 be 4b 5d c2 bb a6 71 28 be 5f 73 a3 bc
       -0.14690581 -0.0059315315 -0.16449603 -0.019952474
0000c0 6d 18 5e be c0 f2 3b 3e a1 cf 37 3e c3 14 9d be
       -0.21689005 0.1835432 0.17950298 -0.30679902
0000d0 12 6d 22 3e 7e 21 16 3e 31 31 54 bd fc 6d 28 be
       0.1586192 0.14661214 -0.051804725 -0.16448206
0000e0 c4 ad ad 3e e5 a9 1b 3e 68 2f 83 be e4 9a d7 bd
       0.33921635 0.15201528 -0.25622106 -0.1052759
0000f0 98 26 25 3e 1e 01 72 be 7c ef d9 3c 91 38 29 bd
       0.16128004 -0.23633239 0.026603453 -0.04131371
000100 8d eb 91 bc 86 4c 48 3e e2 5e 79 be 87 6e 4d 3d
       -0.017812515 0.19560441 -0.24352601 0.050154235
000110 87 ed 49 be 73 37 97 3d 32 49 84 3e 93 99 3b 3e
       -0.19719516 0.07383623 0.25837094 0.18320303
000120 bc 0e 4d be 14 6a cc 3d 68 75 df 3d 92 a5 71 3d
       -0.20025152 0.0998117 0.10911065 0.05899579
000130 b2 8a a5 3d 1f 80 ca 3d 57 7d 73 3e f5 6a 93 3e
       0.08083095 0.098877184 0.23778282 0.2879254
000140 db 18 e4 3d b8 d5 9c 3e 75 3e a8 3e 71 f0 5d 3d
       0.11137553 0.30631804 0.3286015 0.05418438
000150 03 66 29 3e 03 60 8d be 7b 43 91 3d 65 c5 b0 3d
       0.1654282 -0.27612314 0.07092949 0.086314
000160 ad 44 cd be ca 13 b3 3e 0c cf d5 be 9e ef 23 be
       -0.40091458 0.34976035 -0.41759527 -0.16009375
000170 e9 cb ff 3d 2e c9 49 bd 86 8b fb 3d da 60 56 be
       0.12490065 -0.049264126 0.12282471 -0.20935383
000180 7f 20 c8 bd b0 ad 0b bf 69 35 d4 be 83 7a 19 3e
       -0.09771823 -0.545619 -0.41447 0.14988141
000190 1a ce 75 be 7c 4f 2a bc ba ec 68 be 8f e7 22 bc
       -0.24004403 -0.010394927 -0.22746554 -0.009942903
0001a0 7e 98 a3 be f7 e2 40 be 35 29 f3 bd 45 51 4b 3d
       -0.3195228 -0.1883658 -0.11873094 0.04963805
0001b0 e2 c7 a0 3e b9 ef 82 3e a8 3c e6 3d 19 23 77 3e
       0.31402498 0.2557352 0.11242038 0.24134482
0001c0 86 4e e1 be 7c 12 5d be ee 9e a6 bd af fc bc be
       -0.4400522 -0.21589082 -0.08135782 -0.36911532
0001d0 09 3e 74 3d ab 3f 07 bd a2 6f 2c be dc 8f af be
       0.059629474 -0.033019703 -0.1683946 -0.34289443
0001e0 02 b4 74 bd fd 74 87 be 10 fc b5 3e 45 73 0f 3c
       -0.05974198 -0.26456442 0.3554387 0.00875551
0001f0 fc 25 4d 3e ff 4a 77 be 3a 75 0c 3f 47 c1 55 3e
       0.20034021 -0.24149702 0.54866374 0.2087451
000200 a3 3c 17 be 35 2f 42 3e 60 bc 1b 3f 58 f6 ff 3c
       -0.14769225 0.1896332 0.6083431 0.031245396
000210 b0 a0 46 3e 61 04 bd 3e 31 24 7b be 13 45 9f 3d
       0.19397235 0.36917403 -0.24525525 0.07776847
000220 06 19 ae 3e 66 04 65 be 75 59 48 3e a2 11 7f 3e
       0.34003466 -0.22364959 0.19565375 0.2490907
000230 f5 c5 ac be 27 76 71 3e 6a 11 17 be 68 e0 0f 3e
       -0.3374478 0.23580228 -0.14752737 0.14050448
000240 b0 65 e7 be d5 21 2e bd 75 26 d2 3e 54 f8 a0 3e
       -0.4519477 -0.042512733 0.41044965 0.3143946
000250 a6 81 8c be 71 dc d0 3d e0 8e 5f 3e 91 fc 97 be
       -0.27442664 0.10198296 0.21831846 -0.2968488
000260 07 e8 bb bd 80 d1 20 bd b6 8a 22 3e 83 ea 9e 3e
       -0.09175115 -0.039262295 0.15873227 0.31038293
000270 86 63 b6 be df a8 63 3d 54 ef 2a bc 67 af 13 bd
       -0.35622805 0.05558097 -0.010433037 -0.03605595
000280 17 f7 22 3e b0 1c 72 be 9b d4 28 bd 29 bc c2 bd
       0.1591457 -0.23643756 -0.04121838 -0.09508545
000290 d6 5b 29 3e 07 74 ee 3d 74 01 4e be 92 87 e1 bd
       0.16538939 0.11643224 -0.20117742 -0.11012186
0002a0 03 33 07 be 3b a9 00 bd 0a d0 e4 3c 78 5c 84 bd
       -0.13203053 -0.03141139 0.027931232 -0.064629495
0002b0 11 38 d7 be 8c 2f f5 3d de 9f 5c 3e c8 9b 88 3e
       -0.42034963 0.119719595 0.2154536 0.26681352
0002c0 d9 99 34 3c da 32 c0 3d d6 54 ca be 57 51 de 3d
       0.011023008 0.09384699 -0.3951785 0.10855358
0002d0 e6 e0 61 bd 1a 1f 8b 3c e7 24 55 3d 12 70 1a bf
       -0.05514612 0.016982604 0.052037146 -0.60327256
0002e0 7f 27 8f be 92 dc ae bd 41 30 3e bd 2b 54 9b 3e
       -0.2795982 -0.08538164 -0.046432737 0.30337653
0002f0 5c e3 52 3e ed 69 a2 bd f4 5c 3c 3e 30 9b c7 3d
       0.20594543 -0.0793036 0.18394834 0.097463965
000300 de 38 80 be 73 9e 3e bf 1b f8 b4 be 7b 88 01 3e
       -0.25043386 -0.74460524 -0.3534554 0.1264972
000310 2f e5 a2 3e bd 43 96 be 22 56 c3 3c 87 18 11 3e
       0.31815478 -0.29348555 0.023844782 0.14169513
000320 c0 85 9c 3d fc 30 53 bd d8 6b e1 bd 3e 70 9c 3a
       0.07642698 -0.051560387 -0.11006898 0.0011935306
000330 16 7f b1 bd 8b ce bb be 3e 5f 9c 3e 6f 51 72 be
       -0.08666818 -0.36681017 0.30541414 -0.23663877
000340 b9 48 8b be bd bc 99 3c a0 a0 5c be 0d 3a fd 3d
       -0.2720392 0.018766755 -0.21545649 0.12364588
000350 e5 de 80 3e 10 68 3f bd 30 61 8d 3c 89 66 07 bc
       0.25170055 -0.0467301 0.017258257 -0.008264192
000360 16 5b 7a bc e0 d3 8f 3e 51 50 87 bd e8 b9 a4 be
       -0.015280506 0.28091335 -0.06607116 -0.32173085
000370 14 e4 6d be fd d8 a3 3e a0 f3 c7 bd 80 3d 2c 3d
       -0.23231536 0.32001486 -0.09763265 0.04205084
000380 1a 20 a6 3d 14 cf ed be a9 57 13 bf f2 f9 b9 bd
       0.08111592 -0.4644705 -0.57555634 -0.090808764
000390 2e 08 fd bd 71 d7 19 be a3 30 bb be a1 78 20 be
       -0.12355076 -0.1502359 -0.36560544 -0.15671016
0003a0 ac b1 6e bd b5 84 7f 3d 2a c8 00 be ea c4 46 3e
       -0.05827491 0.06238242 -0.12576357 0.19411054
0003b0 7d 9b 6e 3e 79 2d 89 be 4a ba a7 be 44 b6 a1 3e
       0.23301502 -0.26792505 -0.32759315 0.3158437
0003c0 e6 a9 8a be 91 be 0b 3e 41 1a b3 3c 00 4b 27 3e
       -0.27082747 0.13646914 0.021863105 0.16337204
0003d0 22 83 79 3d d5 b7 f5 bc 74 d9 37 3f fc 78 0a 3f
       0.060916074 -0.029994885 0.7181618 0.5409086
0003e0 3e e4 c2 bd 9e 04 c1 bd 68 7c b8 3d 22 08 72 3e
       -0.0951619 -0.09424709 0.090081036 0.23635915
0003f0 7d a5 08 bf e5 0c e4 bd c6 7f c5 bd 4d f8 de be
       -0.53377515 -0.11135272 -0.096435115 -0.43548813

bias f4 [128]
000000 44 cf ec 3d 8d 42 be 3d b8 b6 e3 3d f7 3a 07 3e
       0.1156297 0.09290037 0.11118835 0.13206087
000010 fa 69 36 3e d0 e1 35 3e 44 c3 42 3e bb 71 44 3e
       0.17813864 0.17761922 0.190198 0.1918401
000020 6f b0 33 3d d1 8e a3 bc a5 be 12 3e 1f e4 2c 3d
       0.043869432 -0.019965561 0.14330538 0.04220974
000030 ee 71 22 3e 8a 41 12 3e e2 da 52 3e b8 73 c3 3d
       0.15863773 0.14282814 0.2059131 0.09543556
000040 57 9e f8 bc cc e3 19 3e f1 5c 60 bd e0 ee e2 bc
       -0.03034894 0.15028304 -0.054776136 -0.027701795
000050 b9 50 e3 3d 71 1f be 3c e1 63 12 3d 1c 73 23 bc
       0.11099381 0.023208352 0.035739783 -0.009976175
000060 e3 81 d0 3d 06 80 aa 3d b2 de 03 3e 08 d6 0e 3e
       0.10181024 0.083252 0.1287792 0.13948834
000070 f3 16 fe 3d 01 3d 32 bd 20 15 c3 bd 32 44 27 bd
       0.12406721 -0.04351521 -0.09525514 -0.04083652
000080 4b f2 6e 3c b2 0e fb 3d d4 e3 53 3d d3 15 e9 3d
       0.014584134 0.12258662 0.051730946 0.11381116
000090 0b 1a 85 3d 17 9b a0 bd d1 d6 91 bc 3f b0 ad 3d
       0.06499108 -0.07842081 -0.017802628 0.08480882
0000a0 ea d3 c4 3d 2c c8 9a bd a2 10 8b 3d 07 39 05 3e
       0.09610732 -0.07557711 0.06790282 0.13010035
0000b0 31 2a 1b 3e 35 2a 53 3e c6 11 56 bc 76 69 cc 3d
       0.15152813 0.2062157 -0.013065761 0.099810526
0000c0 5b db 2e 3d 3b b6 bc bd c5 62 06 bd f7 b8 92 bd
       0.042689662 -0.09214445 -0.032809038 -0.071641855
0000d0 e8 e6 ee 3d 17 ad fc 3d d9 f1 0d 3d 39 77 48 3e
       0.116651356 0.12337702 0.034654472 0.1957673
0000e0 79 b3 9f bc 30 99 bf 3c 49 fc 28 3e 12 fc cb bc
       -0.019494759 0.023388475 0.16502489 -0.02490047
0000f0 3c 07 ad bd 5c de 5b 3e c9 64 93 3d 37 5e 10 3e
       -0.084486455 0.21471542 0.071969576 0.1409844
000100 7e fc 17 3e 6f f3 5b 3e 95 bb 65 3e a5 1b 95 3d
       0.14842412 0.21479581 0.22434838 0.072806634
000110 ae c9 fb 3d 7f 8e 57 bd 1d c8 39 3e a9 da f9 3c
       0.12294327 -0.05262613 0.18142743 0.030499773
000120 37 ab 9a 3d f2 1d 09 3e 10 04 c8 3d 7d 7a e0 3d
       0.07552188 0.1339033 0.097664 0.10960863
000130 4f 97 46 3e 77 34 92 3c 05 55 df 3d 53 d9 76 3d
       0.19393657 0.017847283 0.10904888 0.06026585
000140 f5 81 f6 3d 19 94 ae bc 68 a9 1b 3e 27 e6 c3 3d
       0.12036506 -0.021310853 0.15201342 0.095653825
000150 a9 36 50 3d e8 53 f1 bc 11 c0 16 3e fd fb e1 3c
       0.050833378 -0.029458955 0.14721705 0.027585978
000160 24 79 f8 3d 12 7f 03 3d 45 3a 2a 3e 39 f3 5b 3e
       0.12132481 0.032103606 0.1662379 0.21479501
000170 05 c9 e7 bc f7 ae 84 3d 42 26 4a 3e bd 14 c5 bd
       -0.028294096 0.064786844 0.19741157 -0.09623096
000180 af 07 27 3d 1d 67 75 3e 69 2d d7 3d 13 b0 e5 3c
       0.040778812 0.23965116 0.10506708 0.02803806
000190 bd 60 1b 3e b4 0a 90 3d c4 27 02 3d 74 59 0a 3e
       0.15173621 0.070332915 0.031776205 0.13510686
0001a0 6c f0 0a 3e 13 f7 8f bc ba 40 19 3d 78 47 2b 3e
       0.13568276 -0.017573869 0.037415244 0.16726482
0001b0 8e 4a 85 3d 76 3b 1b 3e cc 64 16 3e 8d 81 aa 3d
       0.06508361 0.15159401 0.14686888 0.08325491
0001c0 75 51 67 3e 87 c2 24 3e c4 12 16 3e 19 ee 9c 3d
       0.22589667 0.16089831 0.14655596 0.07662601
0001d0 f8 9b 17 be 64 07 dd 3b fd a0 ea 3d 3b 0b e3 bc
       -0.14805591 0.006745266 0.11456487 -0.027715316
0001e0 85 1f bc 3d e1 95 62 bc 4c a2 55 3e 63 83 09 bd
       0.091856994 -0.013829679 0.20862693 -0.033572566
0001f0 3f 57 9f bd df e5 5f 3e 36 82 82 3e 4a f3 4e 3d
       -0.07780313 0.21865033 0.25489968 0.050524987

log_sigma f4 [1, 2]
000000 90 10 86 bd 33 76 5d bd
       -0.06546128 -0.0540678

weight f4 [2, 128]
000000 54 13 e7 3d b0 43 bd 3d 4e ef 6a 3d 09 ff 81 3d
       0.112829834 0.09241426 0.057357125 0.06347472
000010 57 2f 15 3e dc f7 ff 3d 1f 37 2e 3e 30 c4 27 3e
       0.1456884 0.12498447 0.17013215 0.16383433
000020 6c 6b 73 3d d1 95 9a 3b cb 4e bf 3d 44 17 26 3d
       0.059428617 0.0047175665 0.093412004 0.04054953
000030 88 af ad 3d c6 5f 4c 3d 1d c5 1d 3e 12 dc 3c 3d
       0.084807456 0.049896024 0.15407224 0.046108313
000040 11 d7 ea bd c4 b0 a7 3d c4 13 12 3c a1 55 5e bb
       -0.11466802 0.08188012 0.008915845 -0.003392555
000050 84 69 d8 3d 38 65 f1 bb a5 38 1e bd 1e 2a 9e bd
       0.105670005 -0.0073668025 -0.03862824 -0.07722877
000060 29 55 79 3c d3 87 88 3d 6e 25 d5 3d 5c 27 dc 3d
       0.015218058 0.066665314 0.1040753 0.10749695
000070 0a 11 46 3d e1 c0 f7 bc 2c 87 9a b9 b4 66 b1 bd
       0.048356093 -0.030243339 -0.0002947388 -0.08662167
000080 56 94 f7 3c 6b a8 99 3d 32 40 8f 3d 1a f4 93 3d
       0.0302221 0.07502826 0.06994666 0.07224293
000090 a6 19 9c 3c 1c c9 05 bd 9f 19 a8 bc 3d 6b 46 bc
       0.019055199 -0.032662496 -0.02052003 -0.012110529
0000a0 91 4f 15 3d 37 f4 75 bd 64 a0 4b 3d e5 60 93 3d
       0.036452834 -0.060047355 0.049713507 0.071962155
0000b0 28 ce 0e 3e 20 99 d8 3d 94 67 e3 bd 4b 22 a6 3d
       0.1394583 0.10576081 -0.1110374 0.081120096
0000c0 2b 4c 2f 3c 02 e6 3a bd de 79 3e bd fd 51 19 bd
       0.010699312 -0.04562951 -0.04650294 -0.037431706
0000d0 7a 7e c8 3d 1f 0e 90 3d cd ea a9 bc a4 47 b3 bd
       0.097897485 0.070339434 -0.020741845 -0.08753899
0000e0 03 cb 8a bd 41 80 f2 3c 44 17 d0 3d 56 53 af bd
       -0.06777003 0.029602172 0.101606876 -0.08560817
0000f0 ec 5b 51 bd 86 35 6b 3c 88 85 92 3d 5a 77 88 3d
       -0.051113054 0.014356023 0.07154375 0.066633895
000100 19 56 03 3e 86 77 99 3d de 5c 85 bd bd 9a 8a 3d
       0.12825812 0.074935004 -0.06511854 0.06767795
000110 d1 9b 82 3d cb 23 93 bd d8 55 e2 3d 28 e7 e4 b9
       0.06377376 -0.07184561 0.1105153 -0.00043659774
000120 50 07 ba bb 34 99 b7 3d c5 27 e0 ba c7 97 a7 3c
       -0.0056771412 0.08964768 -0.0017101696 0.020458115
000130 b3 10 f0 3d b9 4e 4e 3d 68 cf 61 3d 43 d5 6d bd
       0.11721935 0.050368045 0.05512944 -0.05806471
000140 fa a0 d8 3d c7 09 1d bc b6 3d df 3d 9c 21 24 bd
       0.10577579 -0.009584851 0.10900442 -0.040071115
000150 57 db 2e 3d 79 c3 3a bc 04 ef 7f 3d d3 c5 0c be
       0.042689648 -0.011399143 0.062483802 -0.13747339
000160 1c 07 17 be ea 2a 58 3d 24 e0 af 3d 28 12 01 3e
       -0.14748806 0.0527753 0.08587673 0.12604582
000170 60 96 9b bd dd 2b 5b 3d 65 84 dd 3d 0a 45 a9 bd
       -0.07597041 0.05350863 0.10816268 -0.08265121
000180 1a d6 0b 3d 95 f4 0f 3e d8 68 6b 3d e7 c2 35 3d
       0.03413973 0.14058144 0.057473034 0.044375326
000190 af 92 f8 3d 43 e0 21 3d 66 2e ac 3c da 33 0c 3d
       0.12137353 0.039520513 0.021018218 0.034229137
0001a0 82 ab 22 3d 3b 52 1f 3d 84 07 9f 3d 2d cf 80 3d
       0.039714344 0.03889678 0.07765105 0.06289516
0001b0 d3 7b 45 3d 62 0d 61 3c 2e 1e eb 3d 76 4c 70 3d
       0.04821379 0.013736101 0.11480366 0.05866667
0001c0 5c 18 58 3e b3 0b c1 bd ee f7 02 3e fb be 33 3d
       0.21103042 -0.094260596 0.1278989 0.043883305
0001d0 0a bd 98 bc 15 b7 b0 bd d1 84 89 3d 0d b0 d4 bd
       -0.018644828 -0.0862867 0.06714786 -0.103851415
0001e0 f4 da 23 bd 0c bd ea bc 82 7c e1 3d 25 f6 27 bd
       -0.04000373 -0.028654598 0.11010076 -0.041006226
0001f0 2e 71 49 bd 2c 57 19 3e 87 92 9d 3d 0b 18 7d bd
       -0.049180202 0.1497466 0.076939635 -0.061790507
000200 be 49 de bd d0 43 04 bd 4c 5f 2c 3d 05 a1 8c 3d
       -0.10853909 -0.032291234 0.04208307 0.068666495
000210 81 09 e6 bb 28 e8 c7 bc 94 71 7f 3d ee 9c c3 bc
       -0.007020176 -0.024402693 0.062364176 -0.02387854
000220 56 55 5f bd f6 3c b2 bd 4e 5c a9 3c c9 a8 a7 3c
       -0.054524742 -0.087030336 0.020673897 0.020466225
000230 ba ec a1 3b 8e 79 e6 3d 70 e4 24 3d 6a 2f 1b 3d
       0.00494155 0.112536535 0.040256917 0.037887014
000240 90 72 20 3c 5c 63 80 3d 81 38 93 bd c4 d6 e8 3c
       0.009792939 0.06268951 -0.07188512 0.02842272
000250 9a 6a bc bd 63 68 32 be 57 09 dd 3d 6c 5b 18 bd
       -0.0920002 -0.17422633 0.10792797 -0.03719656
000260 43 9c ae 3d f7 bd 5c bd 00 6a 39 3d 67 22 9c 39
       0.08525898 -0.053892102 0.045267105 0.0002978027
000270 b4 ce ac bc f3 3a a1 bd b8 79 4f bc f2 9e 12 3e
       -0.021094657 -0.07872572 -0.012663297 0.14318445
000280 ef fd 72 bd fb 96 4c 3c 40 d5 08 be 40 1e b9 3d
       -0.0593242 0.012487168 -0.13362598 0.09038973
000290 62 2c c3 bc 20 b6 6a bd 88 38 d0 bd 24 c1 69 3d
       -0.023824874 -0.057302594 -0.101670325 0.05706896
0002a0 ec cf e3 bc 6a 80 c7 bd 57 ec 30 3d a6 c0 63 be
       -0.027809106 -0.0974129 0.04319414 -0.22241458
0002b0 72 81 03 3d 30 4d cf bd 71 f2 60 bd 79 08 ee bd
       0.03210587 -0.10122144 -0.05491871 -0.1162271
0002c0 16 38 a0 3b d0 17 4a 3a 9b 8a 1b be df 23 96 bb
       0.0048894985 0.0007709237 -0.15189593 -0.004581913
0002d0 51 3e f6 3c 4c 02 ee 3c 82 97 19 3d 25 c9 2b 3e
       0.030059012 0.02905383 0.037498005 0.1677595
0002e0 fb 30 75 bd 4e 31 5a bd 78 0e ea 3b 7c de 85 3d
       -0.059861165 -0.053269677 0.007142838 0.06536576
0002f0 ef cc b4 bc 37 3b 3f 3e 6d cc d2 bd f9 c9 94 3b
       -0.022070376 0.18674932 -0.102928974 0.0045406786
000300 de dc e0 bd bd 68 0e 3d 0f be 13 3e 18 9a 15 3c
       -0.10979627 0.034767855 0.1442797 0.009130977
000310 7e f1 1f 3d 99 6b 6b 3d 73 24 4f 3d 0a 96 e1 3c
       0.039048664 0.05747566 0.05057187 0.027537365
000320 95 b2 57 3d 51 50 25 bd 97 61 2d bd 3e d8 cc 3c
       0.052660543 -0.0403598 -0.042329397 0.025005456
000330 4a ce 89 bd dd c2 17 bd c1 03 4a 3d 83 61 f2 3d
       -0.067288 -0.03705107 0.049319986 0.11835005
000340 9f 09 56 bc b1 31 4f bd a9 f9 df bd 91 57 d8 3d
       -0.013063817 -0.0505845 -0.10936291 0.10563577
000350 25 2a 20 bd 46 d0 05 3b d2 1a e0 bb ef 40 3e 3d
       -0.039102692 0.002041833 -0.0068391347 0.046448644
000360 df 5e 85 3d 93 44 8b bd c8 46 80 3c 55 9f 95 bc
       0.06512236 -0.06800189 0.015658751 -0.018264452
000370 a6 7d 58 3d 85 be 1c 3c 2c 9c 1f 3e 6c e0 02 3c
       0.052854203 0.009566908 0.15586919 0.007988077
000380 86 ff 66 bd 44 a8 87 3d fa 76 de bc bd 3e 73 bd
       -0.05639603 0.06623891 -0.027156342 -0.059386004
000390 d7 e1 9f bc ae 91 84 bd e8 89 80 bd 42 6f e1 3d
       -0.019516869 -0.06473099 -0.062763035 0.11007549
0003a0 25 22 d7 3a f2 de 8f bd ef 84 dd bd b9 51 19 bc
       0.0016413374 -0.07024945 -0.10816371 -0.009357863
0003b0 1d d9 9f bd ef 46 1f 3e 80 c4 c4 3c 70 da 18 3d
       -0.07805083 0.15554403 0.02401948 0.037317693
0003c0 5a 77 95 3d 49 e2 65 3e 7d 3d e5 bb 8e c2 78 bd
       0.07298155 0.22449602 -0.0069958554 -0.060732417
0003d0 ac bc 7d bd b8 70 0f 3d 2f 3a 57 bd e2 0d 2d 3d
       -0.06194751 0.035019606 -0.052545723 0.042249568
0003e0 8d 41 f3 3d f6 f6 62 3d 31 ef 25 3c 4f 02 1e be
       0.11877737 0.0554113 0.010127828 -0.15430568
0003f0 dc d4 dc bd 1e 64 67 3d 0d 3b 2e 3e ec d6 0e 3e
       -0.10782787 0.056491964 0.17014714 0.13949174

bias f4 [2]
000000 3a 4a 04 3e a9 9f 60 3d
       0.1291894 0.054839764

running_mean f4 [22]
000000 d9 a6 70 3d 0e 31 f7 3e 34 ba ea 3e 05 66 88 bf
       0.05875287 0.48279613 0.45845187 -1.0656134
000010 87 d7 5e 3f 13 33 57 3f 16 68 50 3f b3 fb 42 3f
       0.8704762 0.8406231 0.8140882 0.7616531
000020 ba 55 3b 3f 6f e3 3c 3f 29 45 43 3f f0 26 4d 3f
       0.73177683 0.73784536 0.76277405 0.8013754
000030 78 f1 54 3f d2 36 5a 3f d2 b8 61 3f d6 63 65 3f
       0.8318095 0.852399 0.8817264 0.8960546
000040 ff 26 62 3f ca c3 57 3f 29 0c 50 3f ff 00 58 3f
       0.88340753 0.84283125 0.81268555 0.8437652
000050 88 9a 66 3f 5e 53 65 3f
       0.90079546 0.89580333

running_variance f4 [22]
000000 26 ef bb 48 bd 26 d4 49 e0 ef d2 49 7f 70 d8 4d
       384889.2 1.7379436e+06 1.727996e+06 4.539064e+08
000010 0a 81 48 48 65 8b 8e 48 b4 33 b2 48 67 df de 48
       205316.16 291931.16 364957.62 456443.22
000020 d5 0a f5 48 a3 1a eb 48 e0 e6 d0 48 0f be ab 48
       501846.66 481493.1 427831.0 351728.47
000030 c2 8a 89 48 92 92 63 48 f8 ec 4c 48 01 58 47 48
       281686.06 233034.28 209843.88 204128.02
000040 19 ee 5c 48 9a 72 8a 48 5e d4 90 48 c5 88 5d 48
       226232.39 283540.8 296610.94 226851.08
000050 4d fa 25 48 3c fd 2d 48
       169961.2 178164.94

weight f4 [128, 22]
000000 e7 4c 19 3d 86 e8 dc bd c0 82 49 3e e2 31 05 3e
       0.037426855 -0.10786538 0.19678783 0.1300731
000010 66 5f 9d be 86 fa 57 be e7 79 75 be 44 08 81 be
       -0.30736846 -0.21091661 -0.23972283 -0.2520162
000020 89 ac 06 3d b6 69 1e 3e e4 b2 87 be 69 9b 6b 3e
       0.032879386 0.15470013 -0.2650367 0.23008503
000030 b1 3d 6f 3e 65 ed 72 be ce 01 50 be 7e 3c 83 be
       0.23363377 -0.23723371 -0.20313188 -0.2563209
000040 fb 02 fb 3d c2 1e 86 be 15 d4 17 3d 4d 89 70 be
       0.12256428 -0.2619534 0.03706749 -0.23489876
000050 6e 63 6e 3e 0c 6e 1f be 60 57 dc 3d 37 86 85 bc
       0.23280117 -0.15569323 0.10758853 -0.01629935
000060 ce 0b b3 3e 54 a6 cd bd a4 a4 7f 3d ab 77 32 3e
       0.34969944 -0.1004149 0.062412873 0.17428462
000070 c8 f1 92 3d 33 5c 87 3e 3c cc 91 3d 29 3c 6b be
       0.07175022 0.2643753 0.07119033 -0.22972168
000080 4f b8 7b bc ad 53 10 bd f5 31 66 bd ff af 6f be
       -0.015363767 -0.03523605 -0.056199986 -0.23406981
000090 11 b5 b4 3d e9 a1 aa 3a ef 1d 63 3e 55 f9 f0 3d
       0.08823598 0.0013018224 0.22179388 0.11766306
0000a0 14 63 a3 bc 87 b9 af bc 82 d6 60 bd d4 c9 0d be
       -0.019944705 -0.021450771 -0.05489207 -0.13846523
0000b0 a8 06 41 bd e8 36 e2 bd fe 49 1c 3e 07 21 3c be
       -0.04712549 -0.11045629 0.15262601 -0.18371974
0000c0 9a 99 9f 3d be 33 00 3e 9d 14 e0 3d fb 0d 80 3e
       0.07792969 0.12519738 0.10941432 0.25010666
0000d0 5e 5e 0e be 7b f2 c2 bd 75 b5 2a 3c 14 76 4e be
       -0.13903186 -0.09518906 0.010419239 -0.2016223
0000e0 6e fc a9 3d 4d 9f 91 be b2 eb 48 bd 67 d3 5a 3e
       0.083001 -0.2844185 -0.0490529 0.21369706
0000f0 af 04 f5 3c 7c 8e 0d 3c ba bf ab 3d 38 82 9e 3d
       0.02990946 0.008639928 0.08386178 0.07739681
000100 17 65 1c be ab 5e 1d bd 22 8e 48 bd 83 6b 98 be
       -0.15272938 -0.03842036 -0.048963673 -0.29769525
000110 12 03 07 3d fd d0 93 bd c5 89 d2 3c 41 b6 f9 3d
       0.032961912 -0.07217596 0.02570046 0.12192965
000120 cc f6 1c 3e 11 f7 c0 3c b5 48 1e 3e 96 b9 11 be
       0.1532852 0.02355531 0.15457423 -0.14230952
000130 fb e8 44 bb 97 77 cd bd 83 1f 08 bc fc a8 7c be
       -0.0030046094 -0.100325756 -0.008308294 -0.24673837
000140 ce a4 d5 bc 1e bb 7c 3e b3 4c 38 b9 78 cf 91 3d
       -0.026079562 0.24680755 -0.0001757618 0.0711965
000150 93 a7 9a 3d 41 33 91 3d 6b dc 81 be 6f 3a 9d bd
       0.075514935 0.07089854 -0.25363478 -0.07677161
000160 f9 60 c5 3e de bd 36 3f 2c d1 00 bf 64 4e 4a 3f
       0.38550547 0.71383464 -0.5031917 0.79025865
000170 73 b3 76 bd f8 3d 0a bf 95 b3 49 bf 15 c9 28 bf
       -0.06022973 -0.54000807 -0.78789645 -0.65931827
000180 30 ee cb bd e5 4c 12 3e 5f f0 4d be 28 54 fd 3d
       -0.0995754 0.14287145 -0.20111226 0.12369567
000190 f5 08 17 be 32 23 aa bd b0 f3 34 3e a6 4e 0d 3f
       -0.1474951 -0.08307494 0.17671084 0.55198133
0001a0 86 3a 91 3c 2e 3b 88 be 7f 4f 1d 3d 23 d2 bf bd
       0.017728101 -0.2660765 0.03840589 -0.09366252
0001b0 46 f1 38 3f d4 2b 17 3f cb 81 c8 3d 62 36 89 3f
       0.72243154 0.5905125 0.09790381 1.0719721
0001c0 1e 6c 28 bf 48 9f 09 bf e6 d9 fe bd fc 45 44 bd
       -0.65789974 -0.5375867 -0.124439046 -0.047918305
0001d0 4c c9 4c 3b 9b c1 79 3d 87 0a 0e 3d 91 9e 02 be
       0.0031247912 0.060975652 0.03467801 -0.12755801
0001e0 d9 f8 80 bd c9 61 c2 3e 4b 84 25 3f 8c 79 3a 3f
       -0.06297464 0.3796523 0.6465499 0.72841716
0001f0 73 dc 18 3f a8 75 ff 3e ac da 03 bf b8 38 7b be
       0.5971138 0.49894452 -0.5150554 -0.24533355
000200 88 f5 4a be ba e7 e9 be 56 66 93 3e eb 76 1c be
       -0.19820225 -0.45684606 0.28789014 -0.15279739
000210 52 b9 4a bd f4 d3 bc be 48 75 33 bd 3d 90 b0 3d
       -0.04949314 -0.36880457 -0.04381302 0.08621261
000220 a1 e1 dd bd 4b f5 e7 bd 28 25 0b bd 71 56 62 bd
       -0.10834051 -0.11326083 -0.03397098 -0.05525822
000230 50 72 bb 3d 19 ea 37 be 28 b2 8c 3e 39 12 b8 be
       0.09152663 -0.17960395 0.27479672 -0.35951403
000240 d5 05 a0 3e 33 a7 a9 bd 42 95 0a bf f4 bc cb 3e
       0.3125445 -0.08283844 -0.54134 0.39792597
000250 58 d9 0b 3e 7f cc 61 be 0e be 6f be 3c 8b fa bd
       0.13657129 -0.22050665 -0.23412344 -0.12233588
000260 3e 8a 44 be b5 39 28 bd a0 dc 32 bf 5b 28 1e bf
       -0.1919336 -0.04107066 -0.698679 -0.6178033
000270 36 0f 8a 3f 5e a1 59 3f 2e 63 4d 3f cb 96 22 be
       1.0785892 0.8501185 0.8022946 -0.15877835
000280 bd 14 79 be c4 17 77 be 04 3a 33 3f 5e db 50 3e
       -0.24324317 -0.2413016 0.700104 0.20396182
000290 9f 0c 70 be de 41 3f bf 53 e2 82 bf 3f 7f d7 be
       -0.23442315 -0.7470988 -1.0225319 -0.4208927
0002a0 fa 4a c7 be d8 bc 63 bf 82 95 65 be 97 20 05 3e
       -0.3892439 -0.8896003 -0.22420314 0.13000713
0002b0 ab 92 4a 3e 1b 7a 14 3f c2 fe 3f 3e f4 e4 0e 3f
       0.19782512 0.5799882 0.18749526 0.55818105
0002c0 f5 2e ae bd a5 53 18 3f 11 25 15 bf b4 49 6d be
       -0.0850505 0.5950263 -0.58259684 -0.23172647
0002d0 d0 6a 18 bf ed 63 4a be 96 ec c8 bd 74 a4 c2 be
       -0.5953798 -0.19764681 -0.0981075 -0.38016093
0002e0 4b 36 c2 be 23 2b aa bb ae 84 76 3c 4d 2c 96 3e
       -0.37932047 -0.0051931306 0.015046282 0.29330674
0002f0 76 47 f6 3e 55 c3 fc 3e dc 96 4c 3f 0a ae 2d 3f
       0.48101395 0.49367777 0.79917693 0.6784369
000300 fb e5 20 3f 2b 3c 39 3e 65 2f be be 01 5b d2 3d
       0.6285092 0.18089359 -0.37145534 0.10271264
000310 dd 1f 66 3e e7 41 3b 3e d8 ae 8f 3d 83 93 58 3e
       0.22473092 0.18286858 0.07015771 0.21150021
000320 be 2b 45 3e 8d 63 ce 3d 95 48 1f 3d f4 57 c1 be
       0.19254968 0.100775816 0.03888758 -0.37762415
000330 3b de 16 be 1b ce 47 be 30 c7 0e be 90 d1 31 3e
       -0.14733212 -0.19512217 -0.13943172 0.17365098
000340 e0 43 11 3d f0 1d b4 bb 8b e2 88 3e 53 a3 60 be
       0.03546512 -0.005496733 0.2673534 -0.21937303
000350 15 8d c2 3c af 26 8b be 6f f4 09 3e ec d0 a3 be
       0.023748914 -0.2717795 0.1347215 -0.31995332
000360 73 19 1b be e1 08 0f bd 03 2a 4d bb f7 0d e6 bd
       -0.15146427 -0.034920577 -0.0031305559 -0.11233132
000370 bd 96 15 bf 64 82 4e 3f f9 20 d8 be f1 ce 1e 3f
       -0.58433133 0.8066771 -0.42212656 0.6203452
000380 ff ea 29 3d 10 f9 0d 3e 92 98 0d 3f df d1 74 be
       0.041483875 0.13864541 0.5531093 -0.23908184
000390 11 d5 dc be fb 2a a8 be be 1a 87 be 4c 92 b2 3e
       -0.43131307 -0.32845291 -0.2638759 0.3487724
0003a0 1c c0 41 bd cb 72 e8 3e 55 6e c3 3e 34 64 dd 3c
       -0.04730235 0.4540008 0.38170114 0.02702532
0003b0 53 06 29 bf e2 71 e3 3c 2c ec cf be 59 b5 ac 3e
       -0.66025275 0.027764264 -0.40609872 0.33732107
0003c0 47 c1 8e 3d 48 e7 11 3f 00 e1 83 3d 40 4b 1e bd
       0.069704585 0.5699353 0.064394 -0.038645983
0003d0 08 26 61 3e dc f0 c9 bd 99 b1 e0 3c 9d 50 1a 3e
       0.21987164 -0.098603934 0.027428435 0.15069814
0003e0 5d 47 34 3e da 8b c9 3d 77 36 a7 bd e2 7f b5 3c
       0.17605348 0.09841128 -0.08164685 0.022155706
0003f0 cf 7d 7b bd bd 3c c0 bd c6 bd 81 bd 21 45 91 be
       -0.061399277 -0.09386585 -0.063350245 -0.28373054

bias f4 [128]
000000 1f cb df be bf 89 2a bf de fe 17 bf c9 b0 22 bf
       -0.43709657 -0.66616434 -0.5937327 -0.63551
000010 2c a0 17 3f 03 18 0f 3f c9 9d 06 bf 66 b9 57 3f
       0.5922878 0.55896014 -0.5258451 0.8426727
000020 58 bd 09 3f 6d e5 07 bf c3 84 1e 3f 87 db 3c bf
       0.5380454 -0.5308445 0.6192133 -0.7377247
000030 3b df 1e bf 65 96 23 bf d0 77 01 bf ee 2b 00 bf
       -0.6205937 -0.6390136 -0.50573444 -0.5006703
000040 a6 75 f6 be ac 87 15 bf e0 77 21 3f 55 59 15 3f
       -0.48136634 -0.58410144 0.6307354 0.58339435
000050 12 53 2f 3f 63 19 15 3f b5 9b e9 be de 1c 32 3f
       0.6848613 0.5824186 -0.45626608 0.695753
000060 91 88 21 bf 26 9c 0a bf 5f 86 16 bf 85 53 11 bf
       -0.6309901 -0.54144514 -0.58798784 -0.56768066
000070 de 10 1a bf cf b9 1c 3f 41 6c 1e bf 1f 6a 51 3f
       -0.6018199 0.6122102 -0.6188393 0.8180255
000080 7b b5 15 3f eb 31 10 3f 4f 71 27 bf 74 8c 01 bf
       0.5848004 0.5632617 -0.6540727 -0.5060494
000090 62 c4 0f 3f 13 e5 21 3f b2 27 32 bf cc 96 1a 3f
       0.5615903 0.63240165 -0.6959182 0.6038635
0000a0 84 16 15 bf 52 b5 0f 3f 1c 5d 1c bf 99 fd f4 be
       -0.5823748 0.5613605 -0.61079574 -0.4784973
0000b0 fb b3 f0 be db d2 29 3f 48 5c 11 3f 2b a6 07 bf
       -0.47012314 0.66337365 0.56781435 -0.5298793
0000c0 d3 92 2b bf 1a 83 28 3f ce f4 37 3f 35 7b 09 bf
       -0.6702091 0.65825045 0.7185792 -0.53703624
0000d0 10 a1 11 3f d5 3a fa be 0a 76 e2 be 60 1f 17 3f
       0.56886387 -0.4887301 -0.44230682 0.5903225
0000e0 b2 c9 13 3f 11 cc d1 be 01 d8 13 3f 57 88 16 3f
       0.5772964 -0.40976003 0.5775147 0.5880179
0000f0 ab 96 10 3f 4a 42 13 3f 27 8e 06 bf 88 84 3a bf
       0.564799 0.57523024 -0.5256066 -0.72858477
000100 ed 29 2e 3f 80 27 0d 3f 70 4f d0 be 87 d1 7a 3e
       0.68032724 0.551384 -0.40685606 0.24493991
000110 9b eb 11 bf a7 65 19 3f 1c 54 28 3f 95 2b ea be
       -0.5700013 0.59920734 0.6575334 -0.45736375
000120 e9 26 13 bf d3 7c 13 3f a7 20 07 3f 79 4d 27 bf
       -0.5748125 0.5761234 0.527842 -0.6535259
000130 76 a4 18 bf e6 98 17 3f 88 ab 2b bf b3 bd 08 3f
       -0.5962595 0.5921768 -0.6705861 0.5341446
000140 96 66 ea be 94 99 26 3f 01 ac 19 3f 79 3a 1c 3f
       -0.45781392 0.6507809 0.6002808 0.6102672
000150 03 2c 10 bf 45 50 1e 3f 4b ab 14 3f 02 91 23 3f
       -0.56317157 0.6184123 0.5807387 0.6389314
000160 55 e2 1b 3f 71 2f ec be 64 84 09 bf 8c a3 3a bf
       0.6089223 -0.46129945 -0.5371764 -0.729058
000170 29 70 09 3f 7d a9 19 bf f6 10 11 3f ce 71 1e bf
       0.5368677 -0.60024244 0.56666505 -0.618924
000180 86 b6 01 bf 31 44 2f bf fb 03 23 bf 0d c4 1b bf
       -0.50669134 -0.68463427 -0.6367795 -0.60846025
000190 4e 14 1a 3f f3 37 41 3f 45 e7 10 bf 04 70 0e bf
       0.6018723 0.75475997 -0.5660289 -0.5563967
0001a0 73 a4 ed be e7 d1 08 bf 3e 2e 21 bf 50 8d 14 bf
       -0.46414527 -0.53445286 -0.62961185 -0.58028126
0001b0 a8 01 16 3f f1 23 18 bf 4b 38 eb be 26 ab 2d bf
       0.5859628 -0.5942984 -0.45941386 -0.67839277
0001c0 9b 57 13 3f 0d e1 ee be e6 2e 1a 3f b1 54 47 bf
       0.5755555 -0.46656075 0.6022781 -0.77863604
0001d0 45 42 25 3f 84 c8 31 bf 69 c8 04 bf d5 77 1d 3f
       0.64554244 -0.6944659 -0.518683 0.61510974
0001e0 d4 92 10 bf df 37 29 3f 9b 54 1a 3f bb 96 12 3f
       -0.5647404 0.6610088 0.6028535 0.57261246
0001f0 87 47 d8 be ac f9 15 3f 95 7f 03 bf d8 0e 09 bf
       -0.4224207 0.58584094 -0.5136655 -0.53538275

weight f4 [1, 128]
000000 47 c0 d3 be 79 5e 31 bf cd 2b 3b bf 63 5d 33 bf
       -0.41357633 -0.6928478 -0.7311371 -0.7006437
000010 4a 6d ed 3e d1 c4 07 3f eb 7f 16 bf 8c 37 79 3f
       0.46372443 0.53034693 -0.5878894 0.9735038
000020 e0 d9 0b 3f b1 29 62 be 8c f6 03 3f 46 01 27 bf
       0.54629326 -0.22086217 0.51548076 -0.6523632
000030 87 f8 08 bf 1f 88 1e bf 03 c3 34 bf 80 c5 e9 be
       -0.5350422 -0.61926454 -0.70610064 -0.45658493
000040 67 6c ca be f0 3f 0d bf 93 a4 fb 3e e2 74 12 3f
       -0.3953583 -0.55175686 0.49148998 0.572096
000050 b1 b3 49 3f b3 ca 1d 3f 24 9f 56 bf d0 95 a0 3e
       0.7878981 0.6163742 -0.8383658 0.31364298
000060 25 21 24 bf be 64 df be ab 4b 21 bf 98 c4 60 bf
       -0.64113075 -0.43631548 -0.63006085 -0.8779998
000070 48 6f 48 bf 6e 92 ac 3e d5 7e 29 bf 50 87 3b 3f
       -0.782948 0.33705467 -0.66209155 0.73253345
000080 f0 84 10 3f 82 a0 09 3f 50 28 2b bf 43 20 fd be
       0.56452847 0.5376054 -0.66858387 -0.49438676
000090 ad b7 3a 3f af ee ff 3e 79 6b 2e bf b8 ce 2c 3f
       0.72936517 0.4998679 -0.6813274 0.6750293
0000a0 2f 35 07 bf 18 69 09 3f f4 1e 53 bf a3 54 05 bf
       -0.52815527 0.53675985 -0.82469106 -0.5208227
0000b0 7c 11 44 bf 04 5c be 3e ca f9 17 3f de 33 8e be
       -0.7658918 0.37179577 0.5936552 -0.27773947
0000c0 d8 f5 bb be 8a 6c 01 3f 24 41 10 3f f2 c0 01 bf
       -0.36711 0.5055624 0.56349397 -0.50685036
0000d0 60 b6 17 3f 1d 84 2f bf fe d7 fe be aa bf e2 3e
       0.5926266 -0.68560964 -0.49774164 0.44286853
0000e0 9f 6d 17 3f 87 e9 b2 be 4d 8d 1e 3f a6 8a f8 3e
       0.59151644 -0.34943792 0.6193436 0.4854328
0000f0 77 64 10 3f 83 06 19 3f da ef d8 be 8d c4 0c bf
       0.564033 0.5977556 -0.42370492 -0.5498741
000100 af 7e 36 3f 30 7d 05 3f 28 8b e9 be 48 44 c5 3e
       0.71287054 0.52144146 -0.4561398 0.38528657
000110 b8 d9 56 bf 37 8d e0 3e 4c 97 38 3f ab 58 f5 be
       -0.8392596 0.43857738 0.7210586 -0.4791921
000120 93 0a 57 bf f3 22 1c 3f b2 4b f8 3e ab 12 42 bf
       -0.8400051 0.6099083 0.4849525 -0.75809735
000130 52 e4 36 bf 97 ea 09 3f 1a 91 11 bf e5 e2 20 3f
       -0.7144214 0.5387358 -0.5686203 0.62846214
000140 ef 94 20 bf f8 a9 d6 3e f2 23 27 3f 16 6d eb 3e
       -0.62727255 0.4192655 0.65289223 0.45981663
000150 5e 3b f3 be 35 40 d5 3e 82 4a 2d 3f b3 95 44 3f
       -0.4750623 0.4165055 0.67691815 0.7679092
000160 29 eb fc 3e dd c3 b3 be ed 63 1d bf 35 fd 18 bf
       0.49398163 -0.3511037 -0.614806 -0.59761363
000170 93 36 0b 3f d9 90 2d bf 7b f9 16 3f 20 7d 3b bf
       0.5438015 -0.67799145 0.58974427 -0.732378
000180 27 43 ed be 37 43 fb be b7 38 40 bf 8b fb 57 bf
       -0.46340296 -0.49074718 -0.7508654 -0.843682
000190 83 bd 04 3f 11 fd f2 3e a5 33 91 be 26 b0 67 be
       0.5185167 0.474587 -0.28359714 -0.22625789
0001a0 79 94 f1 be 1a f0 8f be a2 4a 4a bf f2 e4 59 bf
       -0.47183588 -0.2811287 -0.7902013 -0.8511497
0001b0 95 d5 fd 3e c8 c4 3e bf db 7f 32 bf f6 4c 2a bf
       0.49577013 -0.74519014 -0.6972634 -0.66523683
0001c0 b1 e1 e5 3e c5 88 bf be a0 0a 0b 3f 42 3a 18 bf
       0.4489875 -0.37409034 0.5431309 -0.59463894
0001d0 1e 8f f5 3e 02 c1 23 bf 0a 86 89 be 29 5e d8 3e
       0.47960752 -0.6396638 -0.26860076 0.42259338
0001e0 7c 92 65 bf 92 d0 e8 3e 6f 3b 07 3f 33 1d f9 3e
       -0.8967664 0.45471627 0.52825063 0.4865509
0001f0 0b 83 c2 be 0f ef e2 3e dc 27 e9 be 23 b8 e5 be
       -0.37990603 0.44323012 -0.45538223 -0.44867048
