Files/George-1-128.pth (torch, 35967 bytes, 12 tensors)

running_mean f4 [22]
0.23941606 0.46225265 0.29833597 7.7805505 0.6652835 0.64214194 0.6250076 0.64203113
0.62102574 0.6788517 0.7479489 0.7547528 0.70593053 0.6232988 0.57496166 0.54454446
0.5263735 0.50871664 0.48752043 0.48171785 0.51998633 0.59578216
00000000: 7c29 753e 61ac ec3e 7ebf 983e 45fa f840
00000010: 0550 2a3f 6a63 243f 8000 203f 275c 243f
00000020: 8bfb 1e3f 3ac9 2d3f 9479 3f3f 7b37 413f
00000030: ddb7 343f 8390 1f3f b030 133f 4467 0b3f
00000040: 6ac0 063f 413b 023f 479c f93e b9a3 f63e
00000050: d31d 053f 2e85 183f

running_variance f4 [22]
1.2674059e+06 1.7300989e+06 1.4569706e+06 1.4641404e+09 347807.75 471564.62 490816.97 554970.8
581406.8 566434.9 412735.5 389174.25 385412.0 360549.84 336539.56 313921.75
313512.78 307804.8 315360.34 330903.2 376234.94 372853.16
00000000: 6fb6 9a49 9731 d349 55da b149 058a ae4e
00000010: f8d3 a948 9441 e648 1fa8 ef48 ad7d 0749
00000020: edf1 0d49 2e4a 0a49 f087 c948 c806 be48
00000030: 8030 bc48 bb0c b048 7253 a448 3848 9948
00000040: 1915 9948 9a4b 9648 0bfc 9948 e692 a148
00000050: 5eb5 b748 a50e b648

weight f4 [128, 22]
-0.09358111 0.549079 -0.4009118 -0.32896453 0.16627358 0.22862132 0.2911694 -0.184725
0.1208026 0.4071706 0.16947621 -0.5871805 -0.016041344 0.20247875 0.15091819 -0.010518594
0.027753882 -0.08872721 0.23236324 0.16683352 0.08307334 0.030129181 -0.025511619 -0.10575445
-0.10133389 0.16106372 0.3522783 -0.038429208 0.4052411 -0.14065222 -0.0051899985 0.16180027
0.2188181 -0.39743626 0.14920436 -0.040616553 0.17748518 -0.010617082 -0.13676935 -0.082599126
-0.047780946 -0.0014426692 0.18333702 -0.41594028 -0.39920384 0.02681911 -0.4388185 0.08147248
0.3150812 0.054767825 0.042108707 -0.2595625 0.14815892 0.31692925 -0.03691095 0.40149364
-0.14617571 0.26335227 -0.171168 0.21955697 -0.3024355 0.21999314 -0.4044506 0.27016982
-0.13193618 0.12599576 -0.37056804 -0.16663511 0.15411189 0.21699303 -0.39089286 -0.23197769
-0.09073441 0.49130857 -0.12949878 0.2657425 0.20858012 0.060518812 -0.0672654 0.2191509
0.23459463 0.12363423 0.18576519 -0.0067862226 -0.11076118 0.6656653 0.2789045 0.020583903
-0.036495272 0.39470765 -0.15713601 0.011051358 -0.1468305 0.18093868 0.21897247 -0.01234373
-0.19687998 0.26636156 -0.18143164 0.113731235 0.18173997 -0.017856237 -0.27216116 0.12224813
-0.10843883 0.33279794 -0.04165184 -0.47588274 0.5558725 0.12402632 0.12232271 -0.19445013
0.3628097 0.03700438 -0.07865667 0.41088107 0.11325108 -0.19578528 -0.37447616 -0.23879287
0.13573106 0.043060508 -0.17036514 0.13646653 0.08350443 -0.047764584 0.2858647 -0.36916605
-0.015127967 -0.11180714 -0.087309904 0.5136858 -0.46165335 0.6059247 -0.18863304 -0.512081
-0.34915814 0.14699116 0.06360475 -0.17037201 -0.12750985 0.25516212 0.3337257 -0.11378619
-0.16349153 0.1623737 0.026692593 -0.17650163 -0.11157439 -0.1414607 -0.08778231 -0.091096036
0.22137164 -0.11479695 0.40888408 -0.689723 0.7082055 0.19649705 -0.3599994 0.28646597
-0.010935493 -0.26597196 0.027359696 -0.16015954 0.10468448 -0.021881722 -0.09367649 0.1995924
-0.018564481 -0.3420579 0.22822058 -0.36940488 -0.35068277 0.055995215 0.3189954 0.3068213
0.06444246 -0.07895326 -0.32865247 0.02938016 0.3472026 0.22772045 0.14003298 -0.23282886
0.029627133 -0.21779265 -0.19711672 -0.031914763 0.5524226 -0.13345157 -0.28219438 -0.2536824
-0.33123285 -0.032060694 -0.21387851 -0.007840807 -0.26233196 -0.14418513 0.14781344 0.121857285
-0.48343712 -0.007832925 0.15768151 0.009244528 -0.062242236 0.21083029 0.123672046 -0.019518388
-0.33167964 0.2906874 0.4129526 -0.34456277 0.121263295 0.13237734 0.45515114 -0.12601076
-0.20658654 -0.0018362141 -0.5519567 -0.015309878 -0.15880229 0.19595326 0.48546562 0.02459795
0.475908 -0.06490971 0.36017576 -0.5869459 -0.12608439 0.27380988 0.29329744 0.34780464
-0.33848456 0.12379538 0.06803065 -0.00691734 -0.44617093 -0.035920676 -0.09526634 0.17001118
0.065804556 0.1175355 -0.11408409 -0.2043733 0.06526131 -0.26896697 0.16609322 0.14038965
0.01215585 0.31690332 -0.04892414 0.21089812 0.5948138 -0.24096909 0.28648594 0.27392107
00000000: 74a7 bfbd 7190 0c3f 5044 cdbe 0a6e a8be
00000010: 9f43 2a3e b51b 6a3e 2814 953e 8d28 3dbe
00000020: 5b67 f73d aa78 d03e 2c8b 2d3e 7651 16bf
00000030: 2369 83bc 9756 4f3e 4c8a 1a3e 2e56 2cbc
00000040: 1c5c e33c 9db6 b5bd a1f0 6d3e 68d6 2a3e
00000050: 5b22 aa3d 79d1 f63c befd d0bc ca95 d8bd
00000060: 2488 cfbd e3ed 243e d25d b43e f267 1dbd
00000070: c37b cf3e 2307 10be dd10 aabb f8ae 253e
00000080: da11 603e c47c cbbe 07c9 183e 8b5d 26bd
00000090: adbe 353e 45f3 2dbc 440d 0cbe bb29 a9bd
000000a0: f4b5 43bd f217 bdba b3bc 3b3e 20f6 d4be
000000b0: 7264 ccbe c0b3 db3c d2ac e0be 0bdb a63d
000000c0: 5352 a13e 3a54 603d 2e7a 2c3d 60e5 84be
000000d0: f9b6 173e 8d44 a23e f02f 17bd 9390 cd3e
000000e0: 16af 15be 1cd6 863e aa46 2fbe 8bd3 603e
000000f0: d3d8 9abe e245 613e 2614 cfbe b353 8a3e
00000100: 471a 07be 0805 013e 18bb bdbe 65a2 2abe
00000110: 82cf 1d3e 6c33 5e3e 1c23 c8be 8f8b 6dbe
00000120: f6d2 b9bd cc8c fb3e 549b 04be 670f 883e
00000130: 0796 553e 93e2 773d 71c2 89bd 1869 603e
00000140: 9339 703e f133 fd3d 3b39 3e3e f65e debb
00000150: c2d6 e2bd 0b69 2a3f 92cc 8e3e 939f a83c
00000160: 117c 15bd 1f17 ca3e 43e8 20be c110 353c
00000170: bc5a 16be fd47 393e 523a 603e 5b3d 4abc
00000180: e89a 49be 8b60 883e 37c9 39be eceb e83d
00000190: 0b1a 3a3e 3e47 92bc b558 8bbe 3a5d fa3d
000001a0: 2d15 debd 7e64 aa3e 1f9b 2abd e7a6 f3be
000001b0: a94d 0e3f 8301 fe3d 5484 fa3d ef1d 47be
000001c0: 31c2 b93e e891 173d c016 a1bd 015f d23e
000001d0: 2ff0 e73d f07b 48be 57bb bfbe 1e86 74be
000001e0: 15fd 0a3e 3760 303d 3374 2ebe e2bd 0b3e
000001f0: 5f04 ab3d cca4 43bd dc5c 923e 5503 bdbe
00000200: 4bdb 77bc 24fb e4bd 89cf b2bd ea80 033f
00000210: d45d ecbe e21d 1b3f 0529 41be be17 03bf
00000220: dbc4 b2be da84 163e 3543 823d 0076 2ebe
00000230: f191 02be 9ca4 823e 18de aa3e bc08 e9bd
00000240: 536a 27be 4b45 263e 6daa da3c d8bc 34be
00000250: 1d81 e4bd 13db 10be 36c7 b3bd 8f90 babd
00000260: 3faf 623e aa1a ebbd 4159 d13e b091 30bf
00000270: f54c 353f 8636 493e d751 b8be abab 923e
00000280: c82a 33bc 7a2d 88be 7121 e03c dd00 24be
00000290: d164 d63d 4c41 b3bc 76d9 bfbd f361 4c3e
000002a0: 8a14 98bc 3722 afbe a8b2 693e a322 bdbe
000002b0: b18c b3be 3d5b 653d 5d53 a33e ae17 9d3e
000002c0: 69fa 833d 3fb2 a1bd 2345 a8be a9ae f03c
000002d0: 8ac4 b13e 8d2f 693e ce64 0f3e b06a 6ebe
000002e0: 9ab4 f23c 0905 5fbe f7d8 49be 0eb9 02bd
000002f0: 916b 0d3f 87a7 08be c87b 90be a9e2 81be
00000300: 5a97 a9be 1352 03bd f802 5bbe ba76 00bc
00000310: 6050 86be 44a5 13be 685c 173e 5090 f93d
00000320: 1285 f7be ab55 00bc 4377 213e 5c76 173c
00000330: b7f1 7ebd e5e3 573e c547 fd3d 07e5 9fbc
00000340: ead1 a9be fbd4 943e 866e d33e 886a b0be
00000350: e458 f83d ed8d 073e 9209 e93e f708 01be
00000360: 6c8b 53be 1fad f0ba 094d 0dbf 48d6 7abc
00000370: 119d 22be f9a7 483e f38e f83e a481 c93c
00000380: 37aa f33e 62ef 84bd f568 b83e 1642 16bf
00000390: 441c 01be cf30 8c3e 152b 963e 7313 b23e
000003a0: d94d adbe 6f88 fd3d a753 8b3d dbaa e2bb
000003b0: 8470 e4be 8f21 13bd 001b c3bd 6917 2e3e
000003c0: 8ac4 863d 74b6 f03d eba4 e9bd 3c47 51be
000003d0: b9a7 853d 0ab6 89be 5714 2a3e 4ec2 0f3e
000003e0: 5529 473c 2741 a23e ae64 48bd adf5 573e
000003f0: b845 183f 9ac0 76be 49ae 923e 623f 8c3e

bias f4 [128]
0.05945449 0.23317817 0.053923085 0.121846184 0.009841003 0.077326156 0.1188884 0.22128041
0.18705274 0.17990494 0.16333568 0.08742035 0.17689317 0.06667457 0.16247389 0.09743024
0.16713083 0.2911087 0.08855705 0.19635282 0.12178283 0.19959062 0.2088079 0.19349116
0.15287092 0.026799481 0.09302003 0.045556925 0.19128829 0.16760808 0.17076519 0.1588175
0.13918324 0.01997417 -0.018686885 0.20441891 0.1966767 0.223381 0.25570637 0.08310334
0.11345579 0.21036117 0.21056327 0.09153092 0.1159518 0.112086646 0.008934539 0.00844704
-0.02111467 0.114901364 0.1460844 0.1703162 0.15952927 0.19528121 0.17158462 0.12970562
0.10811738 0.12198279 0.08635028 0.14615765 0.10760973 0.116576605 0.1785781 -0.020275475
-0.05849816 0.02399745 0.14918298 0.007485021 0.10682584 -0.06523542 -0.06759011 0.19748028
-0.019366954 0.11135604 0.0036127935 0.08189794 -0.07303529 0.053918205 0.13171135 0.15207762
0.10874932 0.18608715 0.2167113 0.17617583 0.20324267 0.14261845 0.27972078 0.20150644
0.109282225 0.16429214 0.13991342 0.07977522 0.16092539 0.1155869 -0.0765015 0.1690293
0.015654946 0.008953306 -0.051945105 0.107161686 0.110056095 0.13037811 0.16824974 0.04761254
0.23583704 -0.05255356 0.13847552 0.16513431 0.0894045 0.055346373 0.041523904 0.023454344
0.09185384 0.06414055 0.12149812 0.118960336 0.13826089 0.103722945 0.13823354 0.22937734
0.08727319 0.10539376 0.060057927 0.21651994 0.14262816 0.06230864 0.31785962 0.029136434
00000000: 8d86 733d 42c6 6e3e 74de 5c3d 7e8a f93d
00000010: 293c 213c 2d5d 9e3d c37b f33d 5597 623e
00000020: c18a 3f3e 0039 383e 7841 273e 7109 b33d
00000030: 7c23 353e ad8c 883d 8e5f 263e 8189 c73d
00000040: 5824 2b3e 330c 953e 665d b53d b710 493e
00000050: 4769 f93d 7c61 4c3e bdd1 553e 8c22 463e
00000060: 328a 1c3e 968a db3c 4981 be3d e699 3a3d
00000070: 14e1 433e 74a1 2b3e 12dd 2e3e 0ea1 223e
00000080: 0d86 0e3e dfa0 a33c 3d15 99bc 3153 513e
00000090: 9e65 493e fdbd 643e f2eb 823e 1532 aa3d
000000a0: 825b e83d eb68 573e e69d 573e 9074 bb3d
000000b0: 2378 ed3d af8d e53d 2c62 123c 7465 0a3c
000000c0: acf8 acbc 6851 eb3d 2697 153e 5f67 2e3e
000000d0: a45b 233e ccf7 473e e1b3 2f3e 8dd1 043e
000000e0: a56c dd3d 1dd2 f93d 6ad8 b03d 5aaa 153e
000000f0: 7d62 dc3d b7bf ee3d 2ddd 363e c118 a6bc
00000100: c49b 6fbd 4d96 c43c 6cc3 183e e844 f53b
00000110: 82c7 da3d 269a 85bd af6c 8abd 4538 4a3e
00000120: 72a7 9ebc a30e e43d 9ec4 6c3b 1bba a73d
00000130: 8793 95bd 56d9 5c3d 57df 063e 3cba 1b3e
00000140: f7b7 de3d a18d 3e3e 91e9 5d3e 7067 343e
00000150: d91e 503e 920a 123e 9037 8f3e b457 4e3e
00000160: 5ccf df3d 333c 283e 7745 0f3e 3161 a33d
00000170: a0c9 243e d3b8 ec3d d2ac 9cbd 0416 2d3e
00000180: cd3e 803c e3b0 123c 64c4 54bd 9677 db3d
00000190: 1765 e13d d781 053e a949 2c3e 5e05 433d
000001a0: 447f 713e 6742 57bd 87cc 0d3e f818 293e
000001b0: b519 b73d e1b2 623d f814 2a3d 5323 c03c
000001c0: de1d bc3d 1f5c 833d 02d4 f83d 7aa1 f33d
000001d0: 4394 0d3e b26c d43d 188d 0d3e e5e1 6a3e
000001e0: 49bc b23d afd8 d73d 4dff 753d 67b7 5d3e
000001f0: 1e0d 123e 5837 7f3d 7fbe a23e 88af ee3c

log_sigma f4 [1, 2]
-0.018467039 -0.15258257
00000000: 3048 97bc 9b3e 1cbe

weight f4 [2, 128]
0.0924294 0.11198791 0.0991771 -0.075990744 0.07535566 0.040805597 0.07330884 0.061601017
0.12115476 0.16967224 0.096894264 0.05512968 0.050095107 -0.026359253 0.12863822 0.107046776
0.15265085 0.06239761 0.023493605 0.0859767 0.09178499 0.1058623 0.1374551 0.16075477
0.09882942 0.01905483 0.13185161 0.06081498 0.1236072 0.10999646 0.00040886446 0.128129
-0.059214115 -0.010900088 -0.057688244 0.100671954 0.07456099 0.18295446 0.07207085 0.042218987
0.01818937 0.10307395 0.12877731 -0.013414694 0.08050201 0.09072219 -0.0055795866 0.012577067
-0.065550864 0.02239379 0.092029124 0.13505901 0.13450359 0.12766625 0.10018026 0.085205585
0.017990194 0.06293748 0.06320244 0.120415755 0.074432395 0.08508799 0.106802694 -0.0017168283
0.0023865856 -0.025907956 0.011052548 0.0181111 0.107134886 -0.040839583 -0.020423094 0.011891844
0.009926399 0.004737141 0.022226535 0.09662552 -0.030674335 -0.061390918 0.14061639 0.09239054
0.09201531 0.09293088 0.15595835 0.09892167 0.165532 0.10513453 0.08481841 0.10274797
0.07691088 0.16808385 0.1631354 0.06388453 0.058996543 0.079952575 -0.0057964465 0.14630002
0.029985175 -0.028011436 0.008036511 -0.020144617 0.058202334 -0.016348619 0.075729385 -0.013765381
0.12824002 0.0005791247 0.085013464 0.15576209 0.018325292 0.11321608 0.052399952 0.027624065
0.047529656 0.00865292 0.054800574 0.00989911 0.03141701 0.008160637 0.11952635 0.16687658
0.0449083 0.051379997 0.0759103 0.1318685 0.106364764 0.07510748 0.1677688 0.05431299
-0.050122928 0.065179065 -0.050469797 0.1628669 -0.17069189 0.069292545 -0.07390921 0.14909269
0.0318528 -0.01736722 0.056342926 0.014369948 0.09115522 0.124478005 -0.0770672 -0.058084626
0.013025896 0.26288903 0.0816561 0.09235074 -0.068323664 0.09669744 0.00950024 -0.061966825
0.033254012 0.031856384 -0.05218254 -0.10609336 0.0019749007 0.026653277 0.13750073 -0.07046718
0.18043219 0.09922645 0.01729841 0.0834825 0.09630434 0.011051479 0.17508984 -0.0075067407
0.08217925 0.035183836 0.02207256 0.049787816 -0.07216476 -0.115763724 0.043676127 -0.042715557
0.074412055 0.12658852 0.030897103 0.003938405 -0.027204985 -0.03732614 0.047513727 0.010498059
0.12942514 0.0292139 -0.007847992 0.01077493 -0.0071403305 0.06147728 0.00954708 0.0368775
-0.07143121 0.03253014 0.17769128 0.03447747 -0.07942159 0.036056485 0.001245352 0.17996006
0.009335021 0.1040821 -0.15512794 -0.13262333 -0.14739612 0.100209534 -0.08612463 -0.015206486
-0.060332615 0.0049072355 0.0021327136 0.027526598 0.0332496 0.0018261893 0.1874269 0.07348949
0.031527787 -0.12531021 -0.0730926 -0.021327628 0.07473512 0.02824631 -0.016212432 0.044138458
-0.040781245 0.012853174 0.04898573 0.1278934 0.012979723 0.11690245 0.0811248 0.10176862
0.079292476 0.060039427 -0.012131451 -0.040885728 0.14458604 -0.085489385 -0.060409434 0.031136774
0.06349852 0.061783165 -0.0026935786 0.08437573 0.12035379 0.0037856863 -0.09256611 0.08307167
0.01958767 0.114566416 -0.108437575 0.023084212 -0.08429954 -0.100855574 0.061497416 0.0031256827
00000000: a04b bd3d eb59 e53d 5d1d cb3d 09a1 9bbd
00000010: 1154 9a3d c523 273d f222 963d 5951 7c3d
00000020: fd1f f83d 8fbe 2d3e 8070 c63d a9cf 613d
00000030: 8730 4d3d 5cef d7bc bdb9 033e 573b db3d
00000040: 8150 1c3e a394 7f3d a975 c03c 8d14 b03d
00000050: c5f9 bb3d 55ce d83d 08c1 0c3e e69c 243e
00000060: 1467 ca3d e018 9c3c 1c04 073e 2119 793d
00000070: c625 fd3d d345 e13d dc5c d639 4034 033e
00000080: 808a 72bd 4896 32bc 824a 6cbd 192d ce3d
00000090: 6fb3 983d 6a58 3b3e e299 933d d1ed 2c3d
000000a0: e001 953c 6f18 d33d 33de 033e 4ec9 5bbc
000000b0: 3dde a43d 8ecc b93d f7d4 b6bb 0b10 4e3c
000000c0: 883f 86bd 2e73 b73c c479 bc3d e94c 0a3e
000000d0: 4fbb 093e f1ba 023e 4f2b cd3d 4480 ae3d
000000e0: 2c60 933c 5ee5 803d 4870 813d 899c f63d
000000f0: 0370 983d 9d42 ae3d 5fbb da3d 3307 e1ba
00000100: 4368 1c3b ec3c d4bc bf15 353c bb5d 943c
00000110: 8969 db3d 6847 27bd 554e a7bc 02d6 423c
00000120: 56a2 223c 053a 9b3b 6c14 b63c 9ae3 c53d
00000130: be48 fbbc 0b75 7bbd befd 0f3e 4037 bd3d
00000140: 8672 bc3d 8c52 be3d 8cb3 1f3e 7297 ca3d
00000150: 3881 293e c650 d73d 46b5 ad3d 876d d23d
00000160: 7483 9d3d 2c1e 2c3e f70c 273e e4d5 823d
00000170: 5ca6 713d 2dbe a33d 1ef0 bdbb accf 153e
00000180: 78a3 f53c 3d78 e5bc 92ab 033c 5306 a5bc
00000190: 9265 6e3d 8aed 85bc 0218 9b3d 3188 61bc
000001a0: 5a51 033e 67d0 173a 8a1b ae3d 1980 1f3e
000001b0: ec1e 963c d5dd e73d 55a1 563d dd4b e23c
000001c0: 75ae 423d fac4 0d3c 9176 603d e02f 223c
000001d0: 1faf 003d 31b4 053c 3bca f43d b2e1 2a3e
000001e0: c4f1 373d d573 523d dc76 9b3d 8908 073e
000001f0: c5d5 d93d f3d1 993d 96cb 2b3e 4c77 5e3d
00000200: b34d 4dbd 9a7c 853d 6bb9 4ebd 95c6 263e
00000210: dbc9 2ebe 40e9 8d3d b65d 97bd c1ab 183e
00000220: 1578 023d b345 8ebc d7c7 663d ee6f 6b3c
00000230: 97af ba3d 53ee fe3d 68d5 9dbd 25ea 6dbd
00000240: 916a 553c 6499 863e 503b a73d 6322 bd3d
00000250: 47ed 8bbd 4f09 c63d e5a6 1b3c edd0 7dbd
00000260: 5c35 083d d77b 023d 5cbd 55bd 7a47 d9bd
00000270: 566d 013b f957 da3c fecc 0c3e 1951 90bd
00000280: 37c3 383e 3d37 cb3d 65b5 8d3c dff8 aa3d
00000290: 363b c53d 4311 353c c04a 333e 1bfb f5bb
000002a0: 984d a83d ed1c 103d 83d1 b43c 4fee 4b3d
000002b0: 1ecb 93bd 8815 edbd bde5 323d 82f6 2ebd
000002c0: 5965 983d 6ca0 013e ec1b fd3c bc0d 813b
000002d0: fddc debc 4be3 18bd c19d 423d 0d00 2c3c
000002e0: 0688 043e fd51 ef3c dd94 00bc 5589 303c
000002f0: 6ff9 e9bb 9acf 7b3d 5b6b 1c3c dd0c 173d
00000300: 874a 92bd 533e 053d b4f4 353e 3f38 0d3d
00000310: c9a7 a2bd f7af 133d 143b a33a 7347 383e
00000320: eaf1 183c ff28 d53d dcd9 1ebe 69ce 07be
00000330: 02ef 16be a83a cd3d 1c62 b0bd a024 79bc
00000340: 551f 77bd e0cc a03b ffc4 0b3b 767f e13c
00000350: bc30 083d bf5c ef3a d6ec 3f3e a881 963d
00000360: 4823 013d 5251 00be 93b1 95bd 47b7 aebc
00000370: ba0e 993d ce64 e73c efcf 84bc 87ca 343d
00000380: 3c0a 27bd 1e96 523c 43a5 483d 7df6 023e
00000390: e7a8 543c 8d6a ef3d c224 a63d 116c d03d
000003a0: 1864 a23d e7eb 753d fec2 46bc cb77 27bd
000003b0: 5d0e 143e 0f15 afbd e26f 77bd 8c12 ff3c
000003c0: 830b 823d 5810 7d3d c086 30bb 2fcd ac3d
000003d0: 0c7c f63d 4719 783b 4d93 bdbd 7b21 aa3d
000003e0: 5276 a03c cca1 ea3d 8514 debd 1a1b bd3c
000003f0: 3da5 acbd 5e8d cebd b7e4 7b3d 41d8 4c3b

bias f4 [2]
0.14874819 0.090253495
00000000: 7251 183e d3d6 b83d

running_mean f4 [22]
0.23941606 0.46225265 0.29833597 7.7805505 0.6652835 0.64214194 0.6250076 0.64203113
0.62102574 0.6788517 0.7479489 0.7547528 0.70593053 0.6232988 0.57496166 0.54454446
0.5263735 0.50871664 0.48752043 0.48171785 0.51998633 0.59578216
00000000: 7c29 753e 61ac ec3e 7ebf 983e 45fa f840
00000010: 0550 2a3f 6a63 243f 8000 203f 275c 243f
00000020: 8bfb 1e3f 3ac9 2d3f 9479 3f3f 7b37 413f
00000030: ddb7 343f 8390 1f3f b030 133f 4467 0b3f
00000040: 6ac0 063f 413b 023f 479c f93e b9a3 f63e
00000050: d31d 053f 2e85 183f

running_variance f4 [22]
1.2674059e+06 1.7300989e+06 1.4569706e+06 1.4641404e+09 347807.75 471564.62 490816.97 554970.8
581406.8 566434.9 412735.5 389174.25 385412.0 360549.84 336539.56 313921.75
313512.78 307804.8 315360.34 330903.2 376234.94 372853.16
00000000: 6fb6 9a49 9731 d349 55da b149 058a ae4e
00000010: f8d3 a948 9441 e648 1fa8 ef48 ad7d 0749
00000020: edf1 0d49 2e4a 0a49 f087 c948 c806 be48
00000030: 8030 bc48 bb0c b048 7253 a448 3848 9948
00000040: 1915 9948 9a4b 9648 0bfc 9948 e692 a148
00000050: 5eb5 b748 a50e b648

weight f4 [128, 22]
0.32022318 -0.23514666 -0.4042468 0.2173636 -0.035194755 -0.91582835 -0.36890084 0.4369856
0.28908217 -0.7815919 -0.59343714 0.16970341 0.388398 0.80912226 0.8334923 0.5844395
0.429158 -0.19635782 -0.21556921 -0.04661799 -0.36345336 -0.17422578 0.49522802 0.098160654
0.0041051134 0.3127464 0.026538087 1.1178037 0.38199997 0.12362608 0.40983066 -0.4495543
-0.17983541 0.6151463 0.614083 0.15072004 -0.35726708 -0.1672965 -0.56978196 -0.54757744
-0.41385013 -0.22314706 0.39628473 0.2795551 0.31571382 0.42845625 -0.674295 0.47237927
0.07364957 -0.18212761 -0.369593 0.2516429 -0.7509985 -0.9780174 -0.04949281 0.94085205
0.69689876 0.55660284 0.51140106 0.1550757 0.34883347 -0.3915849 -0.3669049 -0.45456597
-0.37507418 0.15335926 0.02457615 0.04469714 -0.69981956 0.05161314 -0.16538367 -0.8428042
0.1885421 0.52545774 -0.6389634 -0.7117276 -0.79587543 -0.12093062 0.653779 0.24741936
0.28480294 0.4882955 0.52004164 -0.10332088 -0.976009 -0.38879058 -0.57648 -0.14383489
0.45022812 0.74107456 -0.7009435 -0.28074124 0.14002317 -0.69713056 0.21707599 0.63228124
-0.7870638 -0.4272571 -0.48519295 0.45333025 0.39267182 0.24694054 0.18272944 0.25254872
0.2384168 0.4440608 -0.5642325 -0.9181648 -0.7165101 0.014832583 0.5543808 0.29309306
-0.5079042 0.19637977 0.3293755 0.2966786 0.3785967 0.8462472 0.13668586 -0.15509322
0.29741588 0.100224145 0.6727353 0.5734131 -0.073226474 -0.36203325 -0.040325947 -0.3935203
-0.08098053 -0.27622777 0.22298896 0.15952231 0.3142747 0.5642893 -0.48576003 0.6098773
0.026381439 -0.08572895 0.48477158 0.50202036 0.36195853 -0.47417235 -0.6552017 -0.07059489
1.2623588 0.99490535 0.61843836 0.09363629 0.0048764 0.44537672 0.36045825 -0.023036113
-0.22683166 -0.4040008 0.2982526 0.43724287 -0.77188337 0.30288917 0.70640063 -0.1413195
-0.07174792 -0.27241573 -0.6394028 -0.16458958 0.51326483 0.7652486 -0.049112663 0.4469385
-0.2365963 0.74915814 0.33921266 -0.20148098 -0.24507657 -0.82166517 -0.6314558 -0.032705076
-0.11905174 0.08368314 -0.34956086 0.24987341 0.2762082 0.12926374 0.109072894 0.0986079
-0.07256705 -0.19988997 -0.009633068 0.19936162 0.24766316 0.30532494 0.34719482 -0.08715571
0.13390486 -0.0044320156 -0.18691655 -0.22026299 -0.3030919 0.09655138 -0.23336725 0.23861487
-0.24396487 -0.2195314 -0.036871936 -0.02078413 0.97584915 1.0109284 0.8195541 1.2941176
-0.12681809 -0.8341195 -0.44521415 -0.273766 -0.764369 -0.13140903 -0.6419329 -0.08206428
-0.13600716 0.035647415 -0.024801737 0.4377614 0.044446457 0.2765692 -0.23132837 0.19820163
0.2810878 0.2034834 0.09503604 0.12148868 -0.14210726 -0.1488716 0.030214893 0.11122026
0.36358032 0.2947258 0.28245384 -0.04546499 0.091270395 -0.085162826 -0.18102974 -0.26938358
-0.31603765 0.12702133 -0.21307498 0.2378309 -0.08509349 0.4852957 0.33002454 0.1454139
0.3493044 0.057697177 -0.014427481 -0.19509158 -0.053842172 -0.0025691793 0.22632925 -0.03511586
00000000: 4bf4 a33e 49ca 70be 70f9 cebe 9094 5e3e
00000010: 6028 10bd ba73 6abf 92e0 bcbe 94bc df3e
00000020: 9402 943e 6816 48bf 7feb 17bf bbc6 2d3e
00000030: 1adc c63e a322 4f3f c05f 553f d49d 153f
00000040: 99ba db3e 0612 49be 2dbe 5cbe 81f2 3ebd
00000050: 8f16 babe 3e68 32be 878e fd3e 7408 c93d
00000060: 3084 863b 4c20 a03e 6766 d93c 3114 8f3f
00000070: 8095 c33e ac2f fd3d 53d5 d13e fb2b e6be
00000080: c626 38be 3a7a 1d3f 8b34 1d3f 5b56 1a3e
00000090: b6eb b6be c64f 2bbe 3bdd 11bf 092e 0cbf
000000a0: 2ae4 d3be aa80 64be d5e5 ca3e d921 8f3e
000000b0: 3ea5 a13e 9e5e db3e 999e 2cbf b2db f13e
000000c0: 96d5 963d a97f 3abe 4b3b bdbe 57d7 803e
000000d0: 7041 40bf 595f 7abf f9b8 4abd aedb 703f
000000e0: f567 323f 867d 0e3f 2eeb 023f 2acc 1e3e
000000f0: 4d9a b23e d17d c8be f6da bbbe dfbc e8be
00000100: b909 c0be 360a 1d3e ec53 c93c 5914 373d
00000110: 6027 33bf 4d68 533d 565a 29be 04c2 57bf
00000120: 2e11 413e 6684 063f 1b93 23bf c833 36bf
00000130: 7ebe 4bbf 79aa f7bd 0f5e 273f 805b 7d3e
00000140: b1d1 913e de01 fa3e 7321 053f e699 d3bd
00000150: badb 79bf 8f0f c7be 3194 13bf 7449 13be
00000160: 4d84 e63e 10b7 3d3f 0971 33bf 51bd 8fbe
00000170: 3c62 0f3e 2677 32bf 2b49 5e3e 2fdd 213f
00000180: 037d 49bf 71c1 dabe 366b f8be e71a e83e
00000190: 480c c93e fbdd 7c3e 6d1d 3b3e 114e 813e
000001a0: 8923 743e f05b e33e 8b71 10bf d90c 6bbf
000001b0: 356d 37bf 5d04 733c e6eb 0d3f 4b10 963e
000001c0: 0206 02bf c717 493e e8a3 a83e 42e6 973e
000001d0: 6dd7 c13e a8a3 583f 61f7 0b3e c2d0 1ebe
000001e0: e546 983e 5142 cd3d 6138 2c3f 33cb 123f
000001f0: c3f7 95bd 6c5c b9be d22c 25bd 7e7b c9be
00000200: 1fd9 a5bd ba6d 8dbe 3857 643e d159 233e
00000210: 9de8 a03e 4375 103f 8ab5 f8be eb20 1c3f
00000220: e31d d83c a992 afbd fb33 f83e 6884 003f
00000230: a152 b93e b8c6 f2be 4cbb 27bf 0e94 90bd
00000240: f994 a13f 1eb2 7e3f fa51 1e3f 62c4 bf3d
00000250: 35ca 9f3b 6b08 e43e fc8d b83e 3bb6 bcbc
00000260: 8f46 68be 31d9 cebe 91b4 983e 4cde df3e
00000270: 269a 45bf 4a14 9b3e acd6 343f 0fb6 10be
00000280: 93f0 92bd 137a 8bbe e7af 23bf 2c8a 28be
00000290: 5365 033f 55e7 433f 5c2a 49bd 20d5 e43e
000002a0: 4d46 72be d4c8 3f3f 48ad ad3e 0851 4ebe
000002b0: 5af5 7abe a658 52bf 16a7 21bf c2f5 05bd
000002c0: 66d1 f3bd 1162 ab3d a4f9 b2be d1de 7f3e
000002d0: 296b 8d3e b75d 043e 9c61 df3d f0f2 c93d
000002e0: 099e 94bd f5af 4cbe 04d4 1dbc 7425 4c3e
000002f0: 699b 7d3e 8d53 9c3e 85c3 b13e b17e b2bd
00000300: 5b1e 093e 713a 91bb 0d67 3fbe 9f8c 61be
00000310: dd2e 9bbe bbbc c53d d3f7 6ebe 7557 743e
00000320: edd1 79be d7cc 60be 0707 17bd 7b43 aabc
00000330: 40d1 793f 1a66 813f 4cce 513f a5a5 a53f
00000340: 9adc 01be db88 55bf 1cf3 e3be 0f2b 8cbe
00000350: b0ad 43bf 1790 06be b755 24bf 5111 a8bd
00000360: 7645 0bbe 0603 123d 032d cbbc 4322 e03e
00000370: 7d0d 363d 7a9a 8d3e 58e1 6cbe 5ef5 4a3e
00000380: bdea 8f3e f45d 503e 41a2 c23d 0fcf f83d
00000390: 9184 11be cc71 18be 3985 f73c 73c7 e33d
000003a0: 3327 ba3e 4de6 963e ca9d 903e 7f39 3abd
000003b0: f9eb ba3d d969 aebd dc5f 39be a5ec 89be
000003c0: b0cf a1be e111 023e 5430 5abe f289 733e
000003d0: 7f45 aebd ae78 f83e faf8 a83e 62e7 143e
000003e0: 07d8 b23e e053 6c3d 3e61 6cbc 16c6 47be
000003f0: 9c89 5cbd ad5f 28bb dbc2 673e a6d5 0fbd

bias f4 [128]
0.7460529 0.71787816 0.70815766 0.7246469 0.6885553 0.6984986 0.71894515 0.6922609
-0.6591552 0.88021445 -0.73156804 -0.68715763 0.7489123 0.74448574 0.9355405 -0.731036
0.79641265 0.69761044 -0.75378984 -0.7833859 0.8065893 0.77330273 0.7314069 0.7675595
-0.7277285 0.87956566 -0.79092044 0.7449975 -0.7479843 0.73029953 0.71975994 -0.9017148
0.82235736 0.73001933 0.71582425 -0.7541878 0.8129573 -0.6950757 0.73606694 0.6889542
-0.7096643 0.71854466 0.7016693 0.23292561 0.78768617 -0.74355835 -0.8807683 0.8275253
-0.7026456 0.69239116 0.75896734 -0.737314 -0.73101705 0.76116014 0.73016554 -0.65684074
0.6993563 -0.65504074 0.70366323 -0.71017534 -0.78789836 -0.72508514 -0.6811914 -0.75630295
0.7176774 0.7118457 0.6780206 0.78249174 -0.760392 -0.64214134 -0.7751918 -0.72903514
0.84586316 0.7452666 -0.74564266 0.74880433 0.6869201 -0.7217005 -0.69064033 0.7265331
-0.71746147 0.70444584 -0.71084905 0.6900728 0.8440443 -0.89520466 -0.71225774 -0.8089711
-0.7346964 0.728158 0.70665514 -0.7016593 0.70657367 -0.70886177 0.7267689 0.7193422
0.8013086 -0.7096617 -0.7098608 -0.71678483 -0.6916701 0.8313916 -0.6843267 -0.67057353
-0.69082075 -0.7446635 -0.8540145 -0.70497227 0.69761294 -0.71272564 -0.72573346 0.81618935
-0.7480416 -0.7381831 -0.9109108 -0.68133825 0.7591553 -0.71590614 0.78489125 0.7000068
-0.75196636 -0.6736688 0.71836025 -0.9494462 -0.7312536 0.93305635 0.74189764 0.8531995
00000000: 53fd 3e3f ddc6 373f d249 353f 7682 393f
00000010: 2945 303f ced0 323f ca0c 383f 0338 313f
00000020: 65be 28bf bc55 613f 0b48 3bbf 90e9 2fbf
00000030: b7b8 3f3f 9e96 3e3f 957f 6f3f 2d25 3bbf
00000040: b3e1 4b3f 9996 323f 5ff8 40bf fa8b 48bf
00000050: a37c 4e3f 2bf7 453f 7c3d 3b3f c87e 443f
00000060: 6a4c 3abf 372b 613f c379 4abf 28b8 3e3f
00000070: e67b 3fbf e9f4 3a3f 3042 383f c8d6 66bf
00000080: 0386 523f 8ce2 3a3f 4240 373f 7412 41bf
00000090: f81d 503f 7bf0 31bf e26e 3c3f 4d5f 303f
000000a0: 8fac 35bf 8bf2 373f 99a0 333f 0d84 6e3e
000000b0: cda5 493f d759 3ebf 087a 61bf b3d8 533f
000000c0: 95e0 33bf 8c40 313f af4b 423f 9cc0 3cbf
000000d0: ef23 3bbf 64db 423f 21ec 3a3f b726 28bf
000000e0: 0409 333f c0b0 27bf 4623 343f 0dce 35bf
000000f0: b5b3 49bf 2e9f 39bf 8f62 2ebf 129d 41bf
00000100: b5b9 373f 853b 363f c292 2d3f 6151 483f
00000110: 0da9 42bf 6063 24bf f872 46bf 0ca2 3abf
00000120: 7d8a 583f cbc9 3e3f 70e2 3ebf a4b1 3f3f
00000130: ffd9 2f3f 5dc1 38bf cecd 30bf 13fe 393f
00000140: 8eab 37bf 9056 343f 34fa 35bf 9ca8 303f
00000150: 4a13 583f 222c 65bf 8656 36bf bb18 4fbf
00000160: 1015 3cbf 9068 3a3f 5ae7 343f f29f 33bf
00000170: 03e2 343f f777 35bf 870d 3a3f cf26 383f
00000180: 8f22 4d3f 64ac 35bf 70b9 35bf 367f 37bf
00000190: 4b11 31bf 14d6 543f 0930 2fbf b5aa 2bbf
000001a0: a1d9 30bf 44a2 3ebf b2a0 5abf 1079 34bf
000001b0: c396 323f 3075 36bf abc9 39bf c9f1 503f
000001c0: a87f 3fbf 91f9 3cbf 7331 69bf 2f6c 2ebf
000001d0: 0058 423f a045 37bf a2ee 483f a533 333f
000001e0: de80 40bf 8f75 2cbf 75e6 373f e80e 73bf
000001f0: 7033 3bbf c8dc 6e3f 01ed 3d3f 486b 5a3f

weight f4 [1, 128]
0.7306439 0.6705855 0.584915 0.70986575 0.77162814 0.6449993 0.6535181 0.6864648
-0.88073635 0.61643 -0.78606814 -0.9308526 0.6734884 0.7189335 0.8803953 -0.64734405
0.6263833 0.7253124 -0.76344764 -0.70910233 0.6988222 0.83841467 0.7298723 0.70176554
-1.019733 0.69401556 -0.911061 0.4746158 -0.80642223 0.7678199 0.66355735 -0.7299536
0.8232729 0.655883 0.66442823 -0.81944305 0.8175098 -0.8379799 0.6060529 0.68261784
-0.729438 0.52777934 0.64745206 0.32624474 0.66615784 -0.8056682 -0.809319 0.7086462
-0.7587889 0.6588657 0.65081185 -0.82459646 -0.8613044 0.5718715 0.60441464 -0.65869975
0.6742845 -0.68436736 0.7555806 -0.7506422 -0.72554594 -0.9562181 -0.7697717 -0.8219669
0.5517115 0.6942209 0.6793998 0.8719492 -0.8488257 -0.707601 -0.8219717 -0.7289975
0.5445233 0.6947991 -0.85542005 0.62597746 0.698052 -0.9433507 -0.8340596 0.6117938
-0.79349107 0.5975889 -0.8900271 0.619918 0.8666789 -0.7470322 -0.9803843 -0.834121
-0.88607895 0.6339951 0.7025158 -0.8658444 0.71564233 -0.8539351 0.65928155 0.71345747
0.66325456 -0.8432074 -0.7634 -0.72011256 -0.8200556 0.72972196 -0.63614506 -0.89566976
-0.8255296 -0.8273626 -0.63515896 -0.928667 0.6333678 -0.8797713 -0.71028453 0.56589764
-0.6962876 -0.8627298 -0.7623166 -0.7860414 0.6866847 -0.7211209 0.6992511 0.54662865
-0.8130923 -0.8338154 0.74249524 -0.7591697 -0.8518024 0.62147844 0.6001748 0.65560603
00000000: 7b0b 3b3f 7eab 2b3f fdbc 153f c3b9 353f
00000010: 6c89 453f ad1e 253f f64c 273f 28bc 2f3f
00000020: f077 61bf 5bce 1d3f c33b 49bf 5b4c 6ebf
00000030: bc69 2c3f 070c 383f 9661 613f 57b8 25bf
00000040: a85a 203f 13ae 393f 4e71 43bf bb87 35bf
00000050: 03e6 323f 58a2 563f e9d8 3a3f e8a6 333f
00000060: 9c86 82bf 01ab 313f 4b3b 69bf d800 f33e
00000070: b071 4ebf d88f 443f e5de 293f 3dde 3abf
00000080: 03c2 523f f3e7 273f f817 2a3f 05c7 51bf
00000090: 5248 513f da85 56bf 4826 1b3f 0bc0 2e3f
000000a0: 73bc 3abf 8c1c 073f 6bbf 253f 8d09 a73e
000000b0: 5289 2a3f 4540 4ebf 882f 4fbf d669 353f
000000c0: fd3f 42bf 6cab 283f 9b9b 263f c118 53bf
000000d0: 727e 5cbf 2c66 123f ebba 1a3f 8ca0 28bf
000000e0: e99d 2c3f b332 2fbf bb6d 413f 162a 40bf
000000f0: 61bd 39bf b6ca 74bf c20f 45bf 6c6c 52bf
00000100: f73c 0d3f 76b8 313f 25ed 2d3f 1038 5f3f
00000110: a44c 59bf 5725 35bf bd6c 52bf 959f 3abf
00000120: e165 0b3f 5bde 313f cffc 5abf 0f40 203f
00000130: 89b3 323f 6e7f 71bf ee84 55bf 859e 1c3f
00000140: 3b22 4bbf 96fb 183f d1d8 63bf f2b2 1e3f
00000150: abde 5d3f 813d 3fbf 77fa 7abf f488 55bf
00000160: 12d6 62bf 814d 223f 13d8 333f fba7 5dbf
00000170: 5634 373f 7e9b 5abf adc6 283f 26a5 363f
00000180: 0dcb 293f 71dc 57bf 2f6e 43bf 4c59 38bf
00000190: 2aef 51bf 0fcf 3a3f 67da 22bf 9d4a 65bf
000001a0: e855 53bf 09ce 53bf c799 22bf 1fbd 6dbf
000001b0: 6424 223f b138 61bf 35d5 35bf abde 103f
000001c0: e73f 32bf dcdb 5cbf 2e27 43bf 023a 49bf
000001d0: 92ca 2f3f 619b 38bf 1f02 333f dbef 0b3f
000001e0: d126 50bf ed74 55bf 2b14 3e3f f258 42bf
000001f0: b90f 5abf 3619 1f3f 0ea5 193f ccd5 273f
